reinforce/reinforce_lunarlander.pth (torch, 5632 bytes, 4 tensors)

fc1.weight f4 [64, 8]
0	0x3f01341b	0.5047013
1	0xbe3e0869	-0.18557896
2	0x3caf10cc	0.021370314
3	0xbdd7bb89	-0.10533816
4	0xbe05f92c	-0.13083333
5	0xbf070256	-0.5273794
6	0xbe42cec2	-0.19024184
7	0x3d204bdd	0.03913485
8	0x3e6fd919	0.2342266
9	0xbe95f2fd	-0.29286948
10	0x3df75e54	0.120785385
11	0xbcb6e5f6	-0.02232645
12	0x3e8a28c3	0.26984224
13	0xbd91f320	-0.071264505
14	0xbd89de73	-0.06731882
15	0xbdddec5f	-0.108361
16	0x3efb3a50	0.49067926
17	0xbea5cee9	-0.32384422
18	0x3e5a8c1d	0.21342511
19	0xbf21d73c	-0.63219047
20	0x3e7ff954	0.24997455
21	0x3f11c7a4	0.5694525
22	0x3e46e777	0.19424234
23	0xbe45d93c	-0.1932115
24	0x3f4ca094	0.7993252
25	0xbd4c305b	-0.049850803
26	0x3f29afd2	0.66283906
27	0x3e3b2330	0.18275142
28	0xbf74308b	-0.9538657
29	0x3d4d3011	0.050094668
30	0x3e09e399	0.13465728
31	0x3e1568ab	0.14590709
32	0x3e81f402	0.25381476
33	0xbed9b087	-0.42517492
34	0x3c4ecd76	0.012622228
35	0x3e7211fa	0.2363967
36	0x3e8208c0	0.253973
37	0xbc892d08	-0.016745105
38	0x3c64e4ef	0.013970598
39	0xbc9083ce	-0.017640974
40	0xbec1044a	-0.37698585
41	0x3ee30bb8	0.44344878
42	0xbe15043b	-0.14552395
43	0x3e9b69b9	0.30354097
44	0x3f0aa595	0.5415891
45	0x3e30395e	0.17209384
46	0xbeb0577d	-0.34441748
47	0xbefbf5fc	-0.4921111
48	0x3d9fc706	0.078016326
49	0x3e29b954	0.16574603
50	0x3d6d411d	0.057923425
51	0x3fb56d01	1.417389
52	0x3e1ff233	0.15619735
53	0xbc537890	-0.012907162
54	0x3e4a4ff8	0.19757068
55	0xbcc20c01	-0.023687365
56	0x3f16ef78	0.5895915
57	0xbe010081	-0.12597848
58	0x3f0dfd79	0.55464894
59	0xbf1b2265	-0.60599357
60	0xbf907638	-1.1286077
61	0xbeba46df	-0.36382195
62	0x3e96690f	0.29377028
63	0x3e3bd825	0.18344171
64	0x3efd2ac9	0.49446705
65	0x3c209f05	0.009803538
66	0x3e4b5aba	0.19858828
67	0xbf4d7577	-0.8025736
68	0xbf880961	-1.0627862
69	0xbe82981a	-0.2550667
70	0xbde38056	-0.111084625
71	0x3bf58e2b	0.0074937544
72	0x3df49433	0.11942329
73	0xbea0ffa0	-0.31445026
74	0x3d298374	0.04138513
75	0x3e82cd84	0.2554742
76	0xbe2cafee	-0.16863987
77	0xbe3daa1f	-0.18521927
78	0xbd0cd6e0	-0.03438461
79	0xbe63beff	-0.22240828
80	0xbe983750	-0.297297
81	0x3ed7d053	0.42151126
82	0xbf0ab38a	-0.54180205
83	0x3f086afc	0.53288245
84	0x3f819fb4	1.0126863
85	0x3e4b10b0	0.19830585
86	0xbd9529a1	-0.07283331
87	0x3ed3307e	0.41247934
88	0xbcf41237	-0.029793842
89	0xbdff71d9	-0.124728866
90	0x3eb48085	0.35254303
91	0xbeb66179	-0.3562124
92	0xbc76fd81	-0.0150750885
93	0x3f6c6380	0.92339325
94	0x3f0ebd9e	0.5575808
95	0xbed618ee	-0.41815895
96	0xbd6c6b46	-0.05771949
97	0xbe634784	-0.2219525
98	0x3e2b7dd3	0.16747217
99	0xbf80c016	-1.005862
100	0x3e95db72	0.29268986
101	0xbeed32da	-0.4632786
102	0xbe4bc94f	-0.19901012
103	0xbe6a6630	-0.22890544
104	0x3f4267c9	0.75939614
105	0xbe02ede8	-0.12786067
106	0x3efb940a	0.49136382
107	0xbdde3b8d	-0.10851202
108	0xbfb085bf	-1.3790816
109	0x3ec8b56e	0.3920092
110	0x3eacd772	0.33758122
111	0x3e2d685f	0.16934346
112	0x3e20c5a5	0.15700395
113	0x3ef2c249	0.47413853
114	0xbe869b2c	-0.26290262
115	0x3f136fe4	0.57592607
116	0x3e486eb5	0.19573481
117	0x3ebbee47	0.3670523
118	0xbefea12a	-0.49732333
119	0xbe771479	-0.24128903
120	0xbf2423a8	-0.6411691
121	0xbec9476a	-0.39312297
122	0xbd562b6a	-0.052287497
123	0xbf1077ba	-0.5643269
124	0x3f20ee22	0.6286336
125	0xbf483ce4	-0.7821791
126	0xbdebdf06	-0.11517148
127	0x3daad01a	0.083404735
128	0xbf124f76	-0.571525
129	0xbcef6b16	-0.029225867
130	0xbe490159	-0.1962942
131	0xbea462a6	-0.32106513
132	0x3fceafce	1.6147401
133	0x3f2573eb	0.6463
134	0x3e997d48	0.29978395
135	0xbe8a3c6e	-0.2699923
136	0xbcdd942a	-0.02704819
137	0xbdb83e39	-0.08996243
138	0x3e6f5ef6	0.23376068
139	0xbe148937	-0.14505468
140	0xbb8d2597	-0.0043074596
141	0x3f628589	0.8848501
142	0x3f2db6f4	0.6785729
143	0xbee4d327	-0.44692346
144	0xbed7370f	-0.42034194
145	0xbe2f42a8	-0.17115271
146	0x3e7967cd	0.24356003
147	0xbf14f5b0	-0.5818739
148	0x3f67074a	0.902455
149	0x3f347ea8	0.7050576
150	0x3efb64a3	0.49100217
151	0xbec0d2ea	-0.37660915
152	0xbeb4d133	-0.35315856
153	0xbe13ffb2	-0.14453009
154	0x3d599897	0.053124037
155	0xbf2e1e40	-0.6801491
156	0x3f167805	0.58776885
157	0x3f4db973	0.803611
158	0x3cf588de	0.02997249
159	0x3dc2ffaa	0.0952142
160	0x3ca44b03	0.0200553
161	0xbdf835be	-0.121196255
162	0x3d5c2782	0.053748615
163	0x3dac89cc	0.0842472
164	0x3e33a752	0.17544296
165	0x3d9d52d3	0.07681813
166	0x3e1eff86	0.15527162
167	0x3daf3939	0.08555836
168	0xbe72e1ce	-0.2371895
169	0xbe97b219	-0.29628065
170	0xbe81f7a6	-0.25384253
171	0xbed64726	-0.41851157
172	0x3f8b5863	1.0886348
173	0x3f53fe21	0.82809645
174	0xbe00647d	-0.12538333
175	0x3dac0526	0.083994195
176	0xbec0437e	-0.37551492
177	0xbe9f91e0	-0.3116598
178	0xbd6ca4a0	-0.057774186
179	0xbef534f9	-0.47891977
180	0x3f9fcde0	1.2484703
181	0xbe522d3a	-0.20525065
182	0x3e9d4c94	0.30722487
183	0xbd98cb1d	-0.07460616
184	0xbec8d369	-0.39223793
185	0x3da30397	0.07959669
186	0xbebfc25a	-0.37452966
187	0x3eeb7b2e	0.45992416
188	0x3f4057d9	0.75134045
189	0x3e66d778	0.22543132
190	0x3d656de7	0.056013014
191	0x3e94d143	0.29065904
192	0xbeb68932	-0.35651547
193	0x3e866ee1	0.2625647
194	0xbeb3563d	-0.35026732
195	0xbe70e79a	-0.23525849
196	0x3fa2addd	1.2709309
197	0xbe312b76	-0.17301735
198	0x3e2d55a7	0.16927205
199	0x3e3c25e0	0.18373823
200	0x3f1d7f72	0.6152259
201	0x3ebd924a	0.37025672
202	0x3f189968	0.5960908
203	0x3dc1a59a	0.09455414
204	0xbfad7199	-1.3550292
205	0xbede55cb	-0.4342483
206	0xbd825956	-0.06364696
207	0x3e9662ca	0.29372245
208	0xbec94fbf	-0.39318654
209	0xbe2f1b66	-0.17100295
210	0xbef12099	-0.47095183
211	0xbe035545	-0.12825496
212	0x3f917e47	1.1366662
213	0xbe1d7ffb	-0.15380852
214	0x3c982c3c	0.01857578
215	0x3d83161d	0.06400702
216	0x3f00dfb1	0.50341326
217	0xbe55d02d	-0.20880194
218	0xbce71742	-0.028209332
219	0xbf030409	-0.5117803
220	0xbf1b4ca7	-0.6066384
221	0xbf420a97	-0.7579741
222	0xbe13d908	-0.1443826
223	0x3daab6a5	0.08335618
224	0x3e89b894	0.26898634
225	0x3e6ad1f1	0.22931649
226	0x3ed27182	0.41102225
227	0x3ed786d3	0.4209505
228	0xbf55f1a5	-0.83571845
229	0xbe342d17	-0.17595325
230	0xbf1d628f	-0.61478513
231	0xbeb0f503	-0.3456193
232	0xbe219f66	-0.15783462
233	0xbe022822	-0.12710622
234	0x3e4ec2dc	0.2019152
235	0xbf163289	-0.5867086
236	0x3e11a126	0.1422163
237	0xbf5e3301	-0.86796576
238	0xbeadad64	-0.3392135
239	0x3ea54898	0.32281947
240	0x3eea7ae4	0.45796883
241	0xbd3e1c28	-0.04641357
242	0x3ebc1f70	0.36742735
243	0xbe2c0607	-0.16799174
244	0xbfce3c41	-1.6112138
245	0x3b1bf04b	0.0023794349
246	0x3d4f633e	0.050631754
247	0x3c27315e	0.010204641
248	0xbdc5f579	-0.09665961
249	0x3d7222ad	0.0591151
250	0xbe16198d	-0.14658184
251	0xbf61c132	-0.8818542
252	0xbe1482cd	-0.14503022
253	0x3e84dade	0.25948232
254	0x3dfa1f2f	0.12212979
255	0x3e23a9db	0.15982763

fc1.bias f4 [64]
0	0x3de267b0	0.11054933
1	0xbeb3a7e8	-0.3508904
2	0x3d0e4d08	0.03474143
3	0x3e57ab26	0.21061382
4	0xbe60b380	-0.21943474
5	0x3d9a6a54	0.07539812
6	0x3f1bdb89	0.6088186
7	0x3e553e75	0.20824607
8	0x3f08ac0d	0.5338753
9	0xbe811bca	-0.25216514
10	0x3e0d2939	0.13785256
11	0xbdca8e36	-0.09890406
12	0x3ed9c2f6	0.42531556
13	0xbea949a9	-0.3306401
14	0x3e4d6e6d	0.20061655
15	0x3d9ab6dd	0.0755441
16	0x3e0428b3	0.1290615
17	0xbe56481f	-0.2092595
18	0xbd7c557a	-0.061604954
19	0xbdb69204	-0.08914569
20	0xbec623ad	-0.38699093
21	0x3e264bbc	0.16239828
22	0x3e9e239b	0.3088654
23	0x3e1c2b86	0.15250978
24	0xbdf3a232	-0.11896171
25	0x3dfaf189	0.122531004
26	0x3eb6b3cc	0.3568405
27	0x3e2f6a61	0.17130424
28	0x3e69420d	0.22779103
29	0x3d3f8dcd	0.04676609
30	0x3edc3e64	0.4301635
31	0xbc60d1d7	-0.013721905
32	0x3ebff3a5	0.37490574
33	0xbdb2ac82	-0.087243095
34	0x3e318fd4	0.17340022
35	0x3e3defbc	0.18548483
36	0x3eca6352	0.395289
37	0x3dbfa118	0.09356898
38	0x3e983ffd	0.2973632
39	0x3ea33b3e	0.31881136
40	0xbecd6045	-0.4011251
41	0x3e564e85	0.2092839
42	0x3ee964fa	0.45584852
43	0x3ed90697	0.4238784
44	0x3ead2a18	0.33821177
45	0x3ecefeb1	0.4042869
46	0x3e94c5ff	0.2905731
47	0x3e8d9a09	0.27656582
48	0x3dee4af9	0.11635394
49	0x3dfd15c3	0.12357666
50	0x3efdd9c2	0.495802
51	0x3e239c92	0.15977696
52	0x3e125972	0.14291933
53	0xbeb2e332	-0.3493896
54	0x3e39da8e	0.18149778
55	0x3ecbe069	0.3981965
56	0x3c4c4869	0.012468436
57	0x3e98b71d	0.29827204
58	0x3d23c852	0.039985962
59	0x3ee43e0f	0.44578597
60	0x3dd36998	0.10322875
61	0x3d5d6aec	0.054057047
62	0x3e98e09e	0.2985887
63	0x3c48b089	0.0122491205

fc2.weight f4 [4, 64]
0	0x3d425eb8	0.047453612
1	0x3dff893b	0.124773465
2	0xbe4da9ec	-0.20084351
3	0xbe627912	-0.22116497
4	0x3d379cf4	0.044827417
5	0x3dd67f2e	0.10473476
6	0x3e267149	0.16254152
7	0xbe8a7584	-0.27042782
8	0xbeb84a9a	-0.35994416
9	0x3d6a56a1	0.057211522
10	0xbd837c04	-0.064201385
11	0xbe5f05f0	-0.21779609
12	0xbe96f533	-0.29483947
13	0xbe10bbad	-0.14134093
14	0x3d95028c	0.072758764
15	0xbe51684a	-0.2044994
16	0xbe02b2e7	-0.12763558
17	0xbd2e3253	-0.04252846
18	0xbe466b2f	-0.19376825
19	0xbdcf0f8c	-0.10110387
20	0xbdb018a1	-0.085984476
21	0xbe861db2	-0.2619453
22	0xbe92f4d2	-0.28702408
23	0xbda89b66	-0.08232765
24	0xbd12d567	-0.035848048
25	0xbe3ee2fb	-0.18641274
26	0xbe83ecf4	-0.25766718
27	0xbe0f2af7	-0.13981234
28	0xbd4f0861	-0.0505451
29	0xbd7826d5	-0.060583908
30	0xbeea785c	-0.45794952
31	0xbe521d90	-0.2051909
32	0xbe90154a	-0.28141242
33	0xbe870f85	-0.26379028
34	0xbe815fdc	-0.25268447
35	0xbd2f202f	-0.042755302
36	0xbdcb88b7	-0.09938186
37	0xbe18f8d9	-0.14938678
38	0xbe522d95	-0.205252
39	0xbe5871d3	-0.2113717
40	0xbdc2ab2f	-0.09505307
41	0xbe6a1fd0	-0.22863698
42	0xbdaf5c6f	-0.08562552
43	0xbebc2b7f	-0.36751935
44	0xbdcab361	-0.09897495
45	0xbe87b9ed	-0.26509038
46	0xbe2ea3b9	-0.17054643
47	0xbdf65ba1	-0.120291956
48	0xbe4f537a	-0.20246688
49	0xbdaf2a11	-0.085529454
50	0xbe9bb9cf	-0.30415198
51	0xbebe7cf1	-0.37204698
52	0xbd89386d	-0.067002155
53	0xbe0cb674	-0.13741475
54	0xbcfd4613	-0.030917203
55	0xbeaa4d7b	-0.33262238
56	0xbe871a6e	-0.26387352
57	0xbdead315	-0.11466042
58	0xbe289855	-0.1646436
59	0xbebc8853	-0.36822757
60	0xbdd2908f	-0.102814786
61	0xbe23e2d2	-0.16004494
62	0xbeafe5f4	-0.34355128
63	0xbe2896be	-0.16463754
64	0x3bebfa1a	0.0072014453
65	0xbd9c8aef	-0.07643687
66	0xbe882efe	-0.26598352
67	0x3efac779	0.4898031
68	0x3d2fa557	0.04288229
69	0xbe80e95e	-0.25178045
70	0x3f3ddfdb	0.741697
71	0x3e3b80a1	0.18310787
72	0x3e8f7cf4	0.2802502
73	0xbd83f6e8	-0.06443578
74	0xbeaa6e25	-0.3328716
75	0xbe868012	-0.26269585
76	0xbdcaed5d	-0.09908555
77	0x3f24ee2d	0.6442593
78	0x3da183ba	0.07886453
79	0xbf2f2d3b	-0.6842839
80	0xbf854a19	-1.0413238
81	0xbeabef12	-0.33580834
82	0xbf4aeb74	-0.7926552
83	0xbeac042e	-0.3359694
84	0x3dcb090c	0.09913835
85	0xbf27a1d4	-0.65481305
86	0xbecaafdb	-0.39587292
87	0xbe14b17e	-0.14520833
88	0xbf0d5edc	-0.5522287
89	0x3f35c0ed	0.70997506
90	0xbeb641e9	-0.3559716
91	0x3d54d3a0	0.051959634
92	0x3f11ae30	0.56906414
93	0xbedcc103	-0.43116006
94	0x3f15881e	0.58410823
95	0xbc13e622	-0.009027036
96	0xbe9dd172	-0.30823857
97	0x3eed6c29	0.46371582
98	0xbf090765	-0.5352691
99	0x3ddd30ab	0.10800298
100	0x3ee17c2b	0.44040045
101	0xbf0d2b29	-0.5514398
102	0xbf28f41d	-0.6599749
103	0x3f29a879	0.66272694
104	0x3cb7a67b	0.022418251
105	0xbe7b562a	-0.24544588
106	0x3ec0c26c	0.37648332
107	0xbf0a0fcd	-0.5393036
108	0x3f1da6d8	0.6158271
109	0xbd981a8f	-0.07426941
110	0x3e426a38	0.18985832
111	0xbf6b29db	-0.9186074
112	0xbf1489bd	-0.5802267
113	0x3f06e1a7	0.5268807
114	0xbeef8001	-0.46777347
115	0xbcba2ac4	-0.02272547
116	0xbe798315	-0.2436641
117	0x3a095fbb	0.00052404
118	0xbe9e4b04	-0.30916607
119	0x3ed55cba	0.41672307
120	0xbe8d1de2	-0.2756186
121	0x3f0f5abc	0.55997825
122	0xbe61b24f	-0.22040676
123	0xbe2078a8	-0.15671027
124	0xbd9f8f66	-0.07791023
125	0x3d7a583f	0.061119314
126	0x3eac6421	0.33670142
127	0xbef58eb0	-0.47960424
128	0x3e1d1ef2	0.15343836
129	0x3d251719	0.04030523
130	0x3f094e61	0.5363522
131	0x3ab30d69	0.0013660613
132	0xbdb81511	-0.08988393
133	0xbee19973	-0.44062385
134	0xbfc9319c	-1.5718265
135	0x3de641ff	0.112430565
136	0x3eb38f4f	0.35070273
137	0xbc865503	-0.016397959
138	0xbeecffd7	-0.4628894
139	0x3f6c5350	0.92314625
140	0x3f0bca22	0.54605305
141	0x3d554d95	0.05207594
142	0xbee27960	-0.44233227
143	0x3f266498	0.64997244
144	0x3e9d41a3	0.3071414
145	0x3f5a61a2	0.85305226
146	0x3f1a8680	0.6036148
147	0x3ee15a85	0.44014373
148	0xbcc50ead	-0.02405485
149	0x3edcf276	0.43153733
150	0x3ec190dc	0.3780583
151	0xbe66dedb	-0.2254595
152	0x3d55594f	0.052087124
153	0x3c6e4e8b	0.014545093
154	0x3e32e2ab	0.1746928
155	0x3ef2cdd8	0.4742267
156	0xbe992a6a	-0.29915172
157	0x3f5205cc	0.82040095
158	0x3d882a49	0.0664869
159	0x3eaed4cd	0.3414673
160	0x3e242920	0.16031313
161	0xbca864ed	-0.020555938
162	0x3e1ddc91	0.1541617
163	0xbebeaf01	-0.37242892
164	0xbf4cd826	-0.80017316
165	0x3e4e7e13	0.20165281
166	0xbe05b17b	-0.13055985
167	0xbcc4ff10	-0.024047405
168	0xbda7314a	-0.08163698
169	0x3e918712	0.28423363
170	0xbf853cc0	-1.0409164
171	0x3e924c28	0.28573728
172	0xbf66f852	-0.90222657
173	0x3e7162f4	0.23572904
174	0xbee81ca6	-0.45334357
175	0xbe6a04a6	-0.22853336
176	0x3f076d19	0.52900845
177	0xbe97396d	-0.29536
178	0x3e1a0c84	0.15043837
179	0x3ec7779c	0.38958442
180	0xbede22d9	-0.43385962
181	0x3c9852c4	0.018594153
182	0x3d174250	0.036928475
183	0x3e1e3188	0.15448582
184	0x3e88794d	0.26655045
185	0xbe855221	-0.26039222
186	0x3f013c95	0.50483066
187	0x3ec45e91	0.38353398
188	0xbe6bd2c6	-0.23029622
189	0xbedd63af	-0.43240115
190	0x3e8e6cc0	0.27817345
191	0xbd578b2e	-0.052622966
192	0xbe838565	-0.2568771
193	0xbc8d4bf9	-0.01724814
194	0xbf0abce9	-0.54194504
195	0xbe99ea3c	-0.3006152
196	0x3b3599be	0.0027710046
197	0x3eef2252	0.46705872
198	0x3f3dd426	0.7415184
199	0xbefa13fa	-0.48843366
200	0xbeac5db4	-0.3366524
201	0xbddabd30	-0.10680616
202	0x3f330cff	0.69941705
203	0xbf1304f0	-0.5742941
204	0xbd8f5a7f	-0.06999683
205	0xbf21400d	-0.6298836
206	0x3ed01a84	0.4064523
207	0x3d8289b0	0.06373918
208	0x3edaa219	0.42701796
209	0xbf0d3152	-0.5515338
210	0xbd2a7958	-0.04161963
211	0x3d4352fa	0.047686554
212	0x3db03741	0.08604289
213	0x3e267ef6	0.16259369
214	0x3e8735c3	0.26408204
215	0x3ec5e68b	0.38652453
216	0x3f1adc28	0.6049218
217	0xbf0153db	-0.5051858
218	0x3e891b92	0.26778847
219	0xbf4f1151	-0.808858
220	0xbe8fdad8	-0.28096652
221	0xbea70d81	-0.3262749
222	0xbf244410	-0.64166355
223	0xbd7547bd	-0.059882868
224	0x3e4df24b	0.20111959
225	0xbe3f4032	-0.18676832
226	0x3efcf153	0.49402866
227	0x3e3ecfc8	0.1863395
228	0x3ee722db	0.4514378
229	0x3f142e54	0.5788319
230	0x3efc65b1	0.49296334
231	0xbee46024	-0.446046
232	0x3d85db53	0.065359734
233	0x3cdac824	0.026706763
234	0x3ea8ce91	0.32970098
235	0x3ee3577d	0.44402686
236	0x3e440310	0.19141793
237	0xbe3f88a0	-0.18704462
238	0x3e81f750	0.25383997
239	0x3f5fac8f	0.8737268
240	0x3ce431f7	0.027855856
241	0xbed38272	-0.4131046
242	0x3eb5eba0	0.3553133
243	0xbdd96e0c	-0.10616693
244	0x3f2646ea	0.64951956
245	0xbdb4992e	-0.08818279
246	0x3e430059	0.19043101
247	0xbecc8666	-0.39946288
248	0x3e413e83	0.18871503
249	0xbec30f2a	-0.38097507
250	0xbe067bbc	-0.13133138
251	0xbe2e61d7	-0.1702951
252	0x3ebdede1	0.3709555
253	0x3e67d402	0.22639468
254	0xbf0be929	-0.5465265
255	0x3f196adf	0.599287

fc2.bias f4 [4]
0	0xbe53f53d	-0.2069902
1	0x3df3db1e	0.11907028
2	0x3e261fac	0.1622302
3	0xbe044a7c	-0.12919039
