actor_critic/actor_critic_mountaincar.pth (torch, 10636 bytes, 6 tensors)

fc1.weight f4 [40, 2]
00000000: 0e1b 00be fde9 ebbe 721c d7be cc67 c23e
00000010: 0abd 3abf 4326 313e 821d 7d3d 7a33 e6be
00000020: 6b1a 0c3f 32d6 5f3a df37 1bbf 207e 33bf
00000030: a76e 84bc 7166 a53d 4de0 3c3e 1cf1 39be
00000040: 1920 183f 4a49 043f 08ac 9c3e 0c7f 1d3f
00000050: 9b79 1ebf 421d 323e a8d8 2f3e f269 dcbe
00000060: 418d 3abf e756 b4be 64d0 16bf db2e 52be
00000070: 41e0 8abc 1cb2 60be b66c c7b9 eb15 123f
00000080: cbbd f5bd 623a cdbe 742d 0c3f 3905 383d
00000090: be1d 693e 42b2 1a3f c33b 02be dfa8 b1be
000000a0: b123 263f 557b 393f 1a71 ac3e 60e9 bf3e
000000b0: 1032 dd3e 443f b9be 9dd0 29be 7845 a93e
000000c0: 009f 98be 83f4 243f 822a c93e 8fd0 10bf
000000d0: 6a3d db3e c0fe 5b3c 9761 3c3f 8650 3b3f
000000e0: 817f d7bc d2c8 dbbe b82a 61be ec1d 033f
000000f0: e977 393f 7cf8 463e e74a 3a3e 9a78 ed3e
00000100: fc26 36bf 22ca 3c3f 9d5c 1abe 27da 8e3d
00000110: c8c8 b6bd e488 563e 2520 77be 7582 0d3f
00000120: 14c1 42bc fa9b ea3e 9db2 a3bc 5bd3 80bd
00000130: 4fbd 11bd 412c 383f c505 283e d45f 443f
-0.1251032 -0.46076956 -0.4201389 0.37969816 -0.729447 0.17299752 0.06179572 -0.44961149
0.5472781 0.00085386925 -0.6063213 -0.70114326 -0.016166044 0.0807618 0.18444939 -0.18158382
0.5942398 0.5167433 0.306 0.61521983 -0.61904305 0.17393973 0.17172492 -0.4304958
-0.72871786 -0.3522255 -0.5891173 -0.20525686 -0.016952636 -0.21942943 -0.00038037234 0.57064694
-0.11999091 -0.40083605 0.54756856 0.044926856 0.22765252 0.6042825 -0.1271811 -0.3469915
0.6489821 0.72453815 0.3368004 0.37482738 0.43202257 -0.3618108 -0.16583486 0.33060813
-0.29808807 0.64435595 0.39290243 -0.56568235 0.42820293 0.013427436 0.7358641 0.73169744
-0.026305916 -0.4292665 -0.21988952 0.5121753 0.72448593 0.19430727 0.18192635 0.46381074
-0.71153235 0.7374593 -0.15074392 0.06975203 -0.08925015 0.20950657 -0.24133356 0.55277187
-0.011886854 0.45822126 -0.01998263 -0.06290313 -0.03558093 0.71942526 0.16408451 0.7670872

fc1.bias f4 [40]
00000000: e866 dabb 0a11 9b3e c72b 3fbe 7d76 0bbf
00000010: 2db2 1fbf d70f 74be 74e7 0ebe 6e8b 173f
00000020: 816f f93e c4f3 f5be e1ad e93e f900 543e
00000030: 338f 18bf 12e6 df3e 7e0e ab3e be9f cc3c
00000040: 8fb6 6c3e 73ce 01bf 0dd2 c3be 112e 1d3f
00000050: 6816 2b3e 8326 f8be 0f8e 02bf 372b 1a3e
00000060: 8002 16bf 6e47 bd3e 1a37 c93e 1f43 f4be
00000070: e580 b5be 9e6e cd3e e55a 23bf add7 06bd
00000080: a8f0 fabe a3b1 1a3f e771 14bf ec84 923e
00000090: ab3d 243f 6d2d c23e f5ef 533e b570 843d
-0.0066650994 0.30286437 -0.18669043 -0.54477674 -0.6238125 -0.23834167 -0.1395548 0.5919713
0.48717883 -0.4803754 0.45640472 0.20703496 -0.59593505 0.43730217 0.33409494 0.024978515
0.23116516 -0.5070564 -0.38246194 0.61398417 0.16707766 -0.48466882 -0.50998014 0.15055548
-0.58597565 0.3696856 0.39299852 -0.4770746 -0.354499 0.40123457 -0.6381057 -0.03292053
-0.4901173 0.604273 -0.579863 0.28617036 0.641566 0.37925282 0.20697005 0.0646681

fc2.weight f4 [40, 40]
00000000: cba7 47bd 303e 36bd 9600 ca3d 3f1f fdbd
00000010: 2ee2 f1bd 7650 433e 9b27 cc3b 5ad7 fa3d
00000020: 8580 38be 5be3 10bc 8948 b33c fc46 5b3e
00000030: 3951 91bd 958e 1fbd ec02 f33d 976c 9d3a
00000040: 8bcb 603e 1160 3e3d 7aff 29be 01ce 55bd
00000050: a4d1 0dbd e9ca 1dbe cd93 b4bd 7278 10be
00000060: a82f 653d 97a0 1d3e 6d7e 61bd c74d 57be
00000070: d4fa 70bd 39ef c1bc 193e e6bd 32ab 40bc
00000080: 8917 f5bb 6dfc f83d b908 aabd d221 cdbd
00000090: 7472 9cbd 21c2 893d d2ae 803d 0ecd 393d
000000a0: 80e9 eebc 2629 b5bd f862 b6bc fba0 a33d
000000b0: f9a3 1cbe fbb7 6b3d bd03 d03d f6fe b53d
000000c0: 883e 2abd f99c d5bd 15bd 1dbd 364d 283e
000000d0: 9f4a ce3b 87b2 bd3d 0984 3b3e c70d 75bc
000000e0: d426 f53d b26c b53c 39bb aebd 2033 133e
000000f0: f0ab c43b 00de 453c 6df4 c2bd 4e98 22be
00000100: a2ce cbbb b249 b7bd a69f aebc 61d1 b9bc
00000110: 9ff6 2f3d 422d f53d a0e6 c6bd 8b75 99bd
00000120: 8881 2cbe db60 3b3d d8e5 80bd a808 c43d
00000130: 745e 06be f56c e7bd 67a2 b2bd 110a 1cbd
00000140: d78e 75be cb60 523e 80a4 323e 7493 5c3d
00000150: f95b d43c 04a6 e5bd ae54 c4ba 088f 23ba
00000160: 8eb7 e03c 17ef bebc 0569 263e fb5d 0fbd
00000170: 240d 3d3d f605 7a3c 1bc9 59be 9324 593d
00000180: a382 11be 1f35 10bd 0e91 9e3d 4de5 07be
00000190: c0d1 293b 5b5d 1a3e 7f12 0bbe 990b e93b
000001a0: 6a30 fe3d 4aae 1fbe 7b75 4b3e af8c 5d3e
000001b0: f366 e23d 00cd 123e bc46 d93d fb4b 1b3e
000001c0: 0314 be3d 2826 133e 56cc 1ebe be8c d7bc
000001d0: c64f 963d e35f ea3d 4621 753c 8602 96bd
000001e0: 400d b13c f0d7 cdbd d373 0cbe b91e 97bd
000001f0: b92d 1d3e 389b c03c a425 f9bd cac1 fabd
00000200: 5ee7 cebd d00b b23c 107b c3bd 3c46 1cbd
00000210: 8047 05bc 818b 87bd 5d2f 1bbe c052 653d
00000220: 4834 923c 76e0 03be 206f 12be e733 11be
00000230: a691 95bd ba38 e33d 69f8 e5bd e0de d1bc
00000240: 03b8 053e 6d5b 1b3e 64ee 77bd 16b3 fe3d
00000250: d21f 09be 9523 1a3e b011 c4bc d28e a33d
00000260: f224 853d 08f2 51bd 8547 0a3e 7aca 1abe
00000270: d1f9 92bd 1038 77bc 9632 f6bd e022 61bc
00000280: 2097 8a3e dd5a a23d 0be8 06be 7e80 59bc
00000290: 91a0 5f3d 9459 de3d 5ea0 c43d 21e4 333e
000002a0: ca17 aabd 7bba 98bd 2996 fb3d 1fa4 543d
000002b0: 8241 b43d a81b 3e3e 05a5 573e aba2 7cbe
000002c0: 3630 dd3c acd8 5abe a9a5 c8bd 8ab6 3e3b
000002d0: 07da 02be 4310 d8bd 685b 1c3d 7a84 a13c
000002e0: 9b20 2abe a1a1 4e3e 0098 333e 37a6 ffbd
000002f0: 3f11 263e 9c95 32be 432e 25be f9f8 b6bc
00000300: e9b4 11bd 9ce2 6abd 5bf0 d5bd 1c49 e0bd
00000310: 4630 e63c 5e30 5b3e eead 9dbd 4c57 00be
00000320: b0bd 1abe 45e4 dabd 4afa 7dbd 5cf2 06be
00000330: 7276 03bd 9e08 63bd b46a 11be bc73 cebd
00000340: ee79 3dbd ab06 53bd dbcb 27bd 955f b23d
00000350: 0de7 ed3d aef8 bfbd 1a1b 043d 1d46 81bd
00000360: ecee f8bd 0129 a0bd 215e 04be 7564 e23d
00000370: 65e0 4e3d a5dc 553c 8a7a 133e 736f 5fbc
00000380: 60c7 b2bb de71 fb3d 3018 61bd 2fad f7bb
00000390: 6b62 c73d 151a 5c3d 296e 4ebe 3d52 a4bd
000003a0: e768 2d3c 7f03 143d b857 ee3c d26f 36bd
000003b0: d2e1 1b3d c799 1ebe d96e 953c 9bd4 0f3e
000003c0: 3b15 18be 0af2 c13d c5e4 cebd c1d8 54bd
000003d0: 639c cdbd c6f8 1fbe 88c5 8c3d 210b a53d
000003e0: c918 253e 999f 2e3e 3e61 bb3d 3271 b83b
000003f0: 469b 513d 1cf4 65bd d0df ecbd 99d3 123d
-0.048744004 -0.0444929 0.09863393 -0.12359475 -0.118107185 0.19073662 0.0062303073 0.12248106
-0.18017776 -0.008843268 0.021885173 0.21413797 -0.0709557 -0.038954336 0.11865792 0.0012010512
0.21952645 0.046478335 -0.16601363 -0.052198414 -0.034623757 -0.15409435 -0.08817253 -0.14108446
0.05595365 0.15393291 -0.05505221 -0.21025763 -0.05883296 -0.02367364 -0.11242313 -0.011759566
-0.0074796122 0.121575214 -0.08302445 -0.10016216 -0.07639018 0.0672648 0.06283344 0.04536157
-0.029164076 -0.08845739 -0.022263989 0.07989689 -0.15296926 0.057548504 0.10156963 0.088865206
-0.04156354 -0.10430331 -0.0385104 0.16435704 0.0062955166 0.09262567 0.18312086 -0.014956898
0.119702965 0.022146557 -0.08531804 0.14374971 0.006001942 0.012076855 -0.09519277 -0.15878412
-0.006219701 -0.08949603 -0.02131636 -0.022682847 0.042959806 0.11971523 -0.09711957 -0.07493123
-0.16846287 0.045746665 -0.06293839 0.095719635 -0.13121969 -0.11300079 -0.08722382 -0.038095538
-0.2398027 0.20544736 0.17445564 0.05385156 0.025922762 -0.112133056 -0.001497885 -0.000623927
0.027431276 -0.023307366 0.16251 -0.035001736 0.04615511 0.01526021 -0.21268122 0.053013396
-0.1420999 -0.03520691 0.07742511 -0.13271065 0.0025912374 0.15074675 -0.13581274 0.0071119783
0.12411578 -0.1559383 0.19869034 0.21635698 0.11054792 0.14336014 0.10609195 0.15165703
0.09281161 0.14370024 -0.15507635 -0.026312228 0.07339434 0.1144407 0.014961546 -0.073247
0.021612763 -0.100509524 -0.13716058 -0.07378907 0.15349473 0.023511514 -0.121653825 -0.122439936
-0.101027235 0.021734148 -0.09544957 -0.03815292 -0.008134723 -0.06618405 -0.15154786 0.05598712
0.017847195 -0.12878594 -0.14300203 -0.14179955 -0.07303171 0.11094804 -0.11229021 -0.02561897
0.13058476 0.15171595 -0.06053008 0.12436502 -0.13391045 0.15052636 -0.023934215 0.07986225
0.065011874 -0.05125621 0.13503845 -0.15116301 -0.07176555 -0.01508905 -0.12021367 -0.013741225
0.27068424 0.07927487 -0.13174455 -0.013275264 0.054596487 0.108569294 0.096009 0.17567493
-0.08305319 -0.07457443 0.122845 0.05191433 0.08801557 0.18565238 0.21059044 -0.24671428
0.027000528 -0.21371716 -0.09797222 0.00291005 -0.12778483 -0.10549977 0.03817311 0.01971649
-0.16614 0.20178844 0.17538452 -0.12482875 0.16217516 -0.17439884 -0.16130929 -0.022335516
-0.03557292 -0.057345018 -0.10446235 -0.109514445 0.02809919 0.2140517 -0.0769919 -0.12533301
-0.15111423 -0.1068807 -0.062006272 -0.1317839 -0.03209538 -0.05542814 -0.1420086 -0.10080668
-0.04625886 -0.05152003 -0.040965896 0.08709637 0.11616335 -0.09373604 0.03225241 -0.06312201
-0.12154946 -0.07820321 -0.12926532 0.11054317 0.050506968 0.013053094 0.14402214 -0.013637411
-0.0054558963 0.12277578 -0.054954708 -0.007558487 0.097355686 0.05373581 -0.2015921 -0.08023498
0.010584093 0.036136147 0.029094562 -0.044540234 0.038057156 -0.15488349 0.018241333 0.14045946
-0.14851849 0.094699934 -0.10102228 -0.051964525 -0.10039594 -0.15622243 0.068736136 0.08058763
0.16122736 0.17053069 0.09149407 0.0056287283 0.05117347 -0.056141004 -0.11566126 0.035846327

fc2.bias f4 [40]
00000000: d53e fa3d 7a4c 533d a025 373e a131 173e
00000010: 55a9 933c e3a3 ba3d 6f6b a53c 0580 1d3e
00000020: b179 833d 7958 683d 1947 1cbe 5ee0 e13d
00000030: 4e8c 233d 301a d93c 5165 fc3d 85ba 013b
00000040: c41d 7ebc 0a50 353e 5a69 83bb 647d 10be
00000050: aa2c 10be e356 0a3d aeb7 07be fd21 993d
00000060: ab69 f93c cc80 0abe 3133 42be cde5 abbc
00000070: af5a 52bd 7115 113e e404 fbbd 6650 4c3e
00000080: 5961 083e d5b5 18be 423c 13be f91a 0e3e
00000090: 3e95 79bd 4729 96bd 85ba a0bd 291d 9d3d
0.122190155 0.051586606 0.17885447 0.14765026 0.01802508 0.0911329 0.02019283 0.15380867
0.06419695 0.056725 -0.15261497 0.11029123 0.039928727 0.026501745 0.12324012 0.0019795012
-0.015510026 0.17706314 -0.0040103616 -0.14110333 -0.14079538 0.033774268 -0.13253662 0.07477186
0.030445894 -0.13525695 -0.1896484 -0.020983601 -0.051356014 0.14168335 -0.12256792 0.19952545
0.13318385 -0.14913113 -0.14378455 0.13877477 -0.060933344 -0.07332092 -0.07848076 0.076715775

mu.weight f4 [1, 40]
00000000: 0cf9 33be 8a84 7cbe ba10 523e f0d2 183c
00000010: 5159 f6bd e39a 893d c949 053e 9271 543e
00000020: 6646 393e 1b6e 363e bcae 67bd a32f b43d
00000030: f9df 873d a006 ec3b 6d61 023c 9707 373e
00000040: 5b34 dd3d a107 463d 1b5d d2bd c085 64bc
00000050: ce5c 1fbe 09d9 4c3e 588a b7bc 1fc5 f0bd
00000060: 5002 423e 603a f13b 4f1f f33d ed3f 11be
00000070: c9c4 3f3e b5b3 37be 9017 b93d 382a 903d
00000080: b24d 67bd b84b eabc 000d f4bc bfeb 1ebd
00000090: f837 4c3e 055e 813c fa08 cdbd ff8c 493e
-0.17575473 -0.24659935 0.20514193 0.009327635 -0.120287545 0.067189954 0.13016428 0.20746449
0.18093261 0.1781544 -0.056563124 0.087981485 0.06634516 0.007202938 0.007957798 0.17873989
0.10801002 0.04834712 -0.10271665 -0.013947904 -0.15562746 0.20004667 -0.022404835 -0.11756348
0.18946195 0.007361695 0.11871206 -0.14184542 0.18727411 -0.17939647 0.09037697 0.070393026
-0.05647058 -0.028600559 -0.029791355 -0.038799044 0.19943225 0.015791902 -0.10011478 0.19682692

sigma.weight f4 [1, 40]
00000000: 9f32 1dbd 14cc 8cbd aff0 27bd c401 0dbe
00000010: d9a8 f13b 3856 eb3d 1e77 21bd df77 5dbe
00000020: 0c72 13be e1fb af3d ef32 0cbe 1849 a13d
00000030: 9425 b03c ce5f b4bd 7e1c 143e c01e dcbd
00000040: d3a4 dcbd 38cb 37be cfa1 903d dca0 113d
00000050: 3e3a 04be d97f 963c 20d5 d5bb 06ac 083d
00000060: de7c 63bd 0465 9c3d 68f9 3dbc 3e69 86bb
00000070: bd6d 833d 8ae6 073e 213f 813d 6b5c 4ebe
00000080: 7895 c9bd d143 213e c8b1 bdbc 0902 10be
00000090: a7e1 c6bc d6e1 133e 496a 573c 82ce de3c
-0.038378354 -0.06874862 -0.041001018 -0.13770205 0.0073748645 0.11491054 -0.03942024 -0.21627758
-0.14398974 0.08592964 -0.13691305 0.0787527 0.021502294 -0.08807336 0.14463994 -0.107480526
-0.10773625 -0.17948616 0.070621125 0.035553798 -0.12912843 0.01837151 -0.0065256506 0.03336718
-0.055539005 0.07636455 -0.011595108 -0.0041019013 0.06417415 0.13271537 0.06310869 -0.20152442
-0.09842962 0.15748526 -0.023156062 -0.14063276 -0.024277521 0.14441618 0.013147899 0.02719808
